model converter/my_model.pt (torch, 2136 bytes, 4 tensors)

model.0.weight f4 [4, 2]
00000000: 2e60 edbf ee8a 963f 7768 a5bf f650 0d3f
00000010: 7047 17bf f6d5 2f3f 622e d1bf 53fd c23e
-1.8544977 1.1761148 -1.2922505 0.5520166 -0.5909338 0.68685853 -1.634228 0.38083896

model.0.bias f4 [4]
00000000: 8e52 153f 165d 713f 1d31 993f 9603 47be
0.58329093 0.9428266 1.1968113 -0.19434962

model.1.weight f4 [2, 4]
00000000: 9ce1 afbf 5d72 8bbf 0373 32bf 8e5c e2bf
00000010: 7082 a93f 33f4 1940 2414 d13f 0781 303f
-1.3740726 -1.0894276 -0.69706744 -1.7684495 1.3242931 2.4055297 1.6334271 0.6894688

model.1.bias f4 [2]
00000000: c8ca 0b3f e652 243f
0.54606295 0.6418899
