model converter/my_model.pt (torch, 2834 bytes, 6 tensors)

model.0.weight f4 [4, 2]
000000 9f ce 4b 3f 6a 05 72 bf d3 e1 38 3f 31 60 ed be
       0.79612154 -0.9453951 0.7221958 -0.4636245
000010 54 2d 06 3f 70 3f ab be 27 cb f9 bd df 70 01 3f
       0.52412915 -0.33446836 -0.12196951 0.5056285

model.0.bias f4 [4]
000000 8f 55 66 be 98 81 0b 3f b8 a3 21 3f 71 64 c4 bd
       -0.22493576 0.5449462 0.6314044 -0.0958947

model.1.weight f4 [8, 4]
000000 2b e4 55 3e 72 53 ca bd 02 a5 ab 3d 09 de 61 3c
       0.2088782 -0.09879197 0.08381082 0.013785847
000010 45 dd 23 3e 8a b1 0f be 07 07 2a bf d6 02 8b be
       0.16002376 -0.1403257 -0.6641697 -0.271506
000020 85 fc f0 be 3d 75 07 bf 73 a0 d3 bb 53 05 01 3f
       -0.47067657 -0.52913266 -0.006458336 0.5039875
000030 5c 27 76 3e a6 2f 28 3e bb 39 2f 3e d8 37 14 bf
       0.24038452 0.16424426 0.17111866 -0.5789771
000040 92 9f 35 3f db d4 7e 3e 21 17 9a 3e 46 cc 0a bf
       0.7094661 0.24885885 0.3009577 -0.54217947
000050 63 21 08 3f 31 55 59 3f 39 2e 14 3f 52 8d 03 3e
       0.53175944 0.84895617 0.5788303 0.12846878
000060 f3 03 19 be aa 3c 40 bf 1b f2 5e bf 9a 9d eb bd
       -0.14942913 -0.75092566 -0.87088174 -0.115046695
000070 64 12 0e 3f c5 2d f4 3e 8b 63 04 3f 4e 36 70 be
       0.5549681 0.4769117 0.5171439 -0.23458216

model.1.bias f4 [8]
000000 18 4c 1a 3f 80 77 2b 38 f6 c6 55 bc 64 5a 96 3c
       0.6027236 4.088087e-05 -0.013047924 0.018353648
000010 c3 c6 36 3f 93 d3 b7 bd ec 2c 55 bf be f5 8a 3e
       0.71397036 -0.089759015 -0.8327167 0.2714061

model.2.weight f4 [2, 8]
000000 52 d7 97 be 22 cc 4b 3e e3 fc c0 3e ad 45 53 bd
       -0.29656464 0.19902089 0.37692937 -0.05158012
000010 34 08 a3 be 3f 62 ec be e0 23 a0 3e bb dc 1f bf
       -0.31842196 -0.46168706 0.3127737 -0.6244618
000020 0b 91 d3 3c 80 11 02 3d 8c f0 dc be 17 08 c1 3e
       0.025825998 0.03175497 -0.43152273 0.37701485
000030 1f d8 a1 3e d7 1c 67 3e e7 73 de be ee b7 74 3e
       0.316102 0.22569595 -0.434478 0.23898289

model.2.bias f4 [2]
000000 8a 06 4a be a0 7a ea 3e
       -0.19729057 0.4579668
