model converter/my_really_awesome_iris_model.pt (torch, 3418 bytes, 6 tensors)

fc1.weight f4 [8, 4]
0	0xbe86f080	-0.26355362
1	0xbe8bf8ba	-0.273382
2	0x3e99df18	0.3005302
3	0xbea9603c	-0.33081234
4	0xbe70aec0	-0.23504162
5	0x3e8b4282	0.2719918
6	0xbebe5e1a	-0.3718117
7	0x3e7b1964	0.24521405
8	0x3e3cc185	0.18433197
9	0xbe81c01f	-0.2534189
10	0x3f3a90f1	0.72877413
11	0x3f691a68	0.9105592
12	0x3f2c1f6a	0.67235434
13	0xbe98c47f	-0.29837415
14	0x3e40c9f9	0.18827046
15	0x3f881450	1.0631199
16	0x3f5ad717	0.8548445
17	0x3f2273b5	0.63457805
18	0xbf782d08	-0.9694371
19	0xbf828fdf	-1.0200156
20	0xbee20954	-0.44147742
21	0x3ea9a77a	0.33135587
22	0xbd31b970	-0.043389738
23	0x3eb06166	0.3444931
24	0x3d489287	0.048967864
25	0xbe730948	-0.2373401
26	0xbee7ce1f	-0.45274445
27	0x3e0efe7d	0.13964267
28	0xbea44298	-0.32082057
29	0xbde39248	-0.11111885
30	0x3e982fec	0.2972406
31	0xbe8b66de	-0.2722692

fc1.bias f4 [8]
0	0xbcc86160	-0.024460495
1	0xbd8afc30	-0.06786382
2	0xbf177ed5	-0.59177905
3	0x3e000a44	0.12503916
4	0x3f857aac	1.0428061
5	0xbe403b2c	-0.18772572
6	0x3e9b934b	0.30385813
7	0xbe2685cc	-0.16261977

fc2.weight f4 [9, 8]
0	0x3e152432	0.14564589
1	0x3e15cffe	0.14630124
2	0xbda7ef77	-0.08199971
3	0xbed0dde3	-0.40794286
4	0x3e7d2e5d	0.24724717
5	0xbda740a4	-0.08166626
6	0x3e768d02	0.24077228
7	0xbe59247b	-0.21205322
8	0xbd13c5b0	-0.0360772
9	0x3e9b3027	0.30310175
10	0xbe9d131e	-0.30678648
11	0x3c5f8ee0	0.013644904
12	0xbb972380	-0.004612386
13	0xbe9ab6ca	-0.30217582
14	0xbd8c4270	-0.068486094
15	0xbea5ed4a	-0.324076
16	0x3d9c71f8	0.07638925
17	0x3d73e290	0.05954224
18	0x3f421e62	0.7582761
19	0xbde74de4	-0.11294153
20	0xbf5c08a4	-0.85950685
21	0xbe0287f2	-0.12747172
22	0xbe811264	-0.25209343
23	0x3e8cd2fb	0.27504715
24	0x3de80a28	0.11330062
25	0xbeb43b9d	-0.3520173
26	0xbeb90094	-0.36133254
27	0xbe41d6a6	-0.18929538
28	0x3f5af3fd	0.85528547
29	0xbdd3cad8	-0.10341424
30	0x3ec5ff1c	0.38671196
31	0x3ddfbea8	0.10925037
32	0xbea3183f	-0.31854436
33	0x3d984cac	0.07436499
34	0x3eb14954	0.34626257
35	0x3ec7a198	0.38990474
36	0xbfa00bed	-1.250364
37	0xbcd3e1d0	-0.025864512
38	0x3e6f4546	0.2336627
39	0x3e004dea	0.12529722
40	0x3e2a597e	0.16635701
41	0x3e9943ab	0.2993444
42	0x3f3283e6	0.6973251
43	0x3ed87772	0.4227863
44	0xbe9b4c2c	-0.30331552
45	0x3cbea070	0.023269862
46	0x3e424a76	0.18973717
47	0xbda6fc0c	-0.08153543
48	0x3d3e94d0	0.046528637
49	0x3ba0ff80	0.0049132705
50	0x3ecf7454	0.4051844
51	0x3f21cf54	0.6320698
52	0xbea5cb3c	-0.32381618
53	0xbe99f6c7	-0.3007109
54	0x3dea6617	0.11445253
55	0xbdefa19a	-0.11700745
56	0x3d0d8808	0.034553558
57	0xbea424bd	-0.3205928
58	0x3e0fa61e	0.14028212
59	0xbe7845b5	-0.24245341
60	0xbd2437a8	-0.04009214
61	0x3e9b6565	0.30350795
62	0x3dad4194	0.08459774
63	0x3e96eef5	0.29479185
64	0xbe443dc2	-0.19164184
65	0xbea8662f	-0.3289046
66	0xbe90ecf7	-0.2830579
67	0xbdf8017c	-0.12109658
68	0xbde17ac8	-0.11009747
69	0xbcc48c90	-0.023992807
70	0x3e4f061e	0.20217177
71	0x3e9dde6f	0.30833766

fc2.bias f4 [9]
0	0xbed8e361	-0.42360976
1	0xbe52083c	-0.20510954
2	0xbeb510f8	-0.3536451
3	0x3e89320d	0.26795998
4	0xbf05f19b	-0.52321786
5	0xbed6f0de	-0.41980642
6	0xbe11e010	-0.1424563
7	0xbea0deaf	-0.31419894
8	0x3e995a55	0.2995173

out.weight f4 [3, 9]
0	0x3b6b4440	0.0035898834
1	0xbdd2b02c	-0.10287508
2	0xbeca5328	-0.39516568
3	0x3f5ed875	0.8704904
4	0xbd3ee9c7	-0.046609666
5	0xbf060fa5	-0.5236762
6	0xbf185e35	-0.5951875
7	0x3e951c01	0.29122928
8	0xbd90b894	-0.070664555
9	0xbcf45aaa	-0.029828388
10	0xbe811e3a	-0.25218374
11	0xbe01f277	-0.12690149
12	0xbf3ddcd4	-0.7416508
13	0xbf957f97	-1.1679562
14	0x3f0addf7	0.5424494
15	0x3f1f7088	0.62281084
16	0x3d05eaf8	0.032694787
17	0xbe13f113	-0.14447431
18	0xbe2f0790	-0.17092729
19	0x3e83e563	0.25760946
20	0x3f85518f	1.0415515
21	0xbedae4a0	-0.42752552
22	0x3f9ba341	1.2159196
23	0x3ec486f5	0.38384214
24	0x3e706dcc	0.23479384
25	0xbe9e9ea2	-0.30980402
26	0xbe958b57	-0.2920787

out.bias f4 [3]
0	0x3f4a5132	0.79030144
1	0x3f724887	0.9464192
2	0xbf830d1e	-1.0238378
