model converter/test_circular_model.pt (torch, 6032 bytes, 8 tensors)

model.0.weight f4 [16, 2]
0	0xbed872be	-0.4227504
1	0x3f8ad9ad	1.0847679
2	0xbe4bd4ee	-0.19905445
3	0xbf4e3390	-0.8054743
4	0xbf79ace7	-0.97529453
5	0x3f345e55	0.7045644
6	0xbf1abdeb	-0.6044604
7	0xbf4e223d	-0.80520993
8	0x3f6b0924	0.9181082
9	0x3e9cdbb3	0.30636367
10	0xbf7345c2	-0.95028317
11	0x3efed7b3	0.4977394
12	0x3eda6bdc	0.42660415
13	0xbf1d394e	-0.61415565
14	0x3f86425b	1.0489
15	0x3e65b6de	0.2243304
16	0xbf0d68db	-0.5523812
17	0xbec67a4f	-0.3876519
18	0xbf846599	-1.0343505
19	0xbefbeb2a	-0.49202853
20	0xbf4cbb38	-0.79973173
21	0x3dc423f3	0.09577169
22	0x3ec7c9b0	0.39021063
23	0xbf8b8ddc	-1.0902667
24	0xbf221b7b	-0.6332318
25	0xbf8593fc	-1.0435786
26	0xbe34fac8	-0.1767379
27	0xbef364c3	-0.47537813
28	0xbedf329a	-0.43593293
29	0xbe8061a7	-0.25074503
30	0x3f7d0e17	0.98849624
31	0xbeb3281e	-0.34991544

model.0.bias f4 [16]
0	0xbed08056	-0.40722913
1	0xbe9d4890	-0.30719423
2	0xbeaedb10	-0.34151506
3	0xbe04227d	-0.12903781
4	0xbdb5e460	-0.0888145
5	0xbdb17a97	-0.0866596
6	0xbe98ce23	-0.2984477
7	0x3e0831a9	0.13300194
8	0xbd905054	-0.070465714
9	0xbef85f9b	-0.4851044
10	0x3e784baa	0.24247614
11	0xbed6c23a	-0.41945058
12	0xbea30acb	-0.31844172
13	0x3f6a52e1	0.91532713
14	0x3f718d3e	0.94356143
15	0x3e290b39	0.16508187

model.2.weight f4 [32, 16]
0	0x3f16bf55	0.588857
1	0x3e9a62b7	0.30153438
2	0x3eb6dd2e	0.35715622
3	0x3e6dfa6d	0.23240061
4	0x3f019636	0.5061983
5	0x3de1a3cb	0.11017569
6	0x3f08f1fb	0.5349423
7	0x3e0173c7	0.12641822
8	0x3e2983d0	0.16554189
9	0x3eb9786d	0.3622469
10	0x3e81672c	0.25274026
11	0x3e9592e0	0.2921362
12	0x3e3fd308	0.18732846
13	0xbe9ea00d	-0.30981484
14	0xbddbac3f	-0.10726213
15	0x3eaf4ac3	0.34236726
16	0x3ea95dea	0.33079463
17	0x3ec1ceb9	0.3785303
18	0x3e145e19	0.1448902
19	0x3e6446b3	0.22292595
20	0x3f0f75cd	0.56039125
21	0x3ee33a29	0.4438031
22	0x3e400983	0.18753628
23	0x3eb17d70	0.34666014
24	0x3d33f9db	0.043939453
25	0x3e36d471	0.17854477
26	0x3e95415b	0.29151425
27	0x3e641e6c	0.2227723
28	0x3e9bd151	0.30433133
29	0xbb81bcd4	-0.0039592776
30	0xbeca2f18	-0.39489055
31	0x3e63d4fb	0.22249214
32	0x3ee3c24a	0.44484168
33	0x3e6d6719	0.2318386
34	0x3f04915f	0.5178432
35	0x3e763f0f	0.24047492
36	0x3f0b88e9	0.54505783
37	0x3dc273d5	0.094947495
38	0x3efd2d3a	0.49448568
39	0x3f0d68be	0.5523795
40	0x3d76112b	0.060074966
41	0x3f053743	0.5203745
42	0xbe832770	-0.25616026
43	0x3f13743c	0.57599235
44	0x3e78d745	0.24300869
45	0xbe0d4bba	-0.13798419
46	0xbe9ae966	-0.30256194
47	0x3e7b576e	0.2454507
48	0xbe0f37a0	-0.13986063
49	0x3d25a3f1	0.04043955
50	0x3bff937d	0.0077995644
51	0xbe9ebb51	-0.31002286
52	0xbe8703b1	-0.26370004
53	0xbdf1280b	-0.11775216
54	0xbe125b44	-0.14292628
55	0xbe7860b2	-0.24255636
56	0xbd8cf2bd	-0.06882236
57	0xbe52a76c	-0.20571679
58	0xbea993b2	-0.33120495
59	0x3de63926	0.11241369
60	0x3e10a90a	0.14126983
61	0xbdca6737	-0.09882968
62	0xbc64e5cd	-0.013970804
63	0xbe6f4cce	-0.23369142
64	0x3db8a2a7	0.090153985
65	0xbe3564ae	-0.17714188
66	0xbd817192	-0.0632049
67	0xbe73b822	-0.2380071
68	0xbde22deb	-0.110439144
69	0xbd8e9b19	-0.06963176
70	0x3e21236a	0.15736166
71	0xbdf1b59b	-0.118022166
72	0xbc6e8ca0	-0.014559895
73	0x3db32578	0.08747381
74	0xbe2eb222	-0.1706014
75	0x3d9a6a7c	0.075398415
76	0xbe362d0e	-0.17790624
77	0xbe700100	-0.23437881
78	0xbe627a66	-0.22117004
79	0xbe7ef710	-0.24898934
80	0xbdd0853e	-0.10181664
81	0x3e0cec25	0.13761957
82	0x3ddf46c2	0.10902168
83	0xbe3a1ab9	-0.18174256
84	0xbe269cb4	-0.16270715
85	0xbb838708	-0.0040138997
86	0x3dbefc33	0.09325447
87	0xbe413833	-0.18869095
88	0xbeb4e37b	-0.35329804
89	0x3e0713de	0.13191172
90	0xbe67fb05	-0.2265435
91	0xbd4e25cf	-0.050329026
92	0xbe31dc6e	-0.17369244
93	0x3c912219	0.017716454
94	0xbe46f6de	-0.1943011
95	0xbe8fadc2	-0.28062254
96	0x3e3ba46f	0.18324445
97	0x3d9a38e0	0.07530379
98	0xbe3b98e7	-0.18320046
99	0xbc97f3b5	-0.018548826
100	0x3ca59e1a	0.02021699
101	0xbdbf57fa	-0.09342952
102	0xbe87b214	-0.2650305
103	0x3ca1b9e5	0.019741962
104	0x3df012e5	0.11722354
105	0xbdf4c272	-0.1195115
106	0xbe25f4c0	-0.16206646
107	0x3dd3ba31	0.103382476
108	0xbdbbc8a7	-0.09169131
109	0xbeab9f61	-0.33520034
110	0xbd98c3db	-0.074592315
111	0xbe6d1a53	-0.23154573
112	0xbdbebb0a	-0.093130186
113	0x3d02d988	0.031945735
114	0xbe6d4a76	-0.23172936
115	0xbe236204	-0.15955359
116	0x3ea4701e	0.3211679
117	0xbe120806	-0.14260873
118	0xbe115b24	-0.14194924
119	0x3dcf5e42	0.101254
120	0xbe2368bd	-0.15957923
121	0x3e065383	0.13117795
122	0x3ca586b3	0.020205831
123	0xbd2289c1	-0.039682154
124	0xbdffc157	-0.124880485
125	0xbe567f2a	-0.20946947
126	0xbe537280	-0.20649147
127	0xbe04ffd3	-0.12988214
128	0xbed0c30e	-0.40773815
129	0xbe81943b	-0.25308403
130	0xbebef9be	-0.37299913
131	0xbe82a802	-0.25518805
132	0xbe460cc5	-0.19340809
133	0xbd2a5f0f	-0.04159456
134	0xbe46eb4c	-0.19425696
135	0xbc84221a	-0.016129542
136	0xbcad4c78	-0.021154627
137	0xbebb8431	-0.36624292
138	0x3ec9899b	0.39362797
139	0xbf277af2	-0.65421975
140	0xbec8ad13	-0.39194545
141	0x3eb83905	0.35981002
142	0x3f1c2493	0.6099331
143	0x3e66a396	0.2252334
144	0xbc7bd7a4	-0.015371237
145	0xbe32bd79	-0.1745509
146	0x3d4adbb6	0.04952594
147	0xbcfbd2c7	-0.030740155
148	0x3da1bf70	0.07897842
149	0xbd6f7942	-0.05846525
150	0x3d9fedef	0.07809054
151	0xbdd493b9	-0.10379738
152	0x3d2139f9	0.039361928
153	0xb9e26454	-0.0004318083
154	0xbe322fb1	-0.17401005
155	0xbe9b57db	-0.30340466
156	0xbe6f12f2	-0.23347071
157	0x3e73bafe	0.238018
158	0x3e98f470	0.2987399
159	0x3e0f5a43	0.13999276
160	0xbe3772de	-0.17914912
161	0xbe4cfd6e	-0.20018551
162	0x3e829ff1	0.2551265
163	0xbe9a9952	-0.301951
164	0xbe74096c	-0.23831719
165	0x3e61a304	0.22034842
166	0x3d2ebcf9	0.042660687
167	0x3db5f3b5	0.08884374
168	0x3e41c2c5	0.18921955
169	0xbe6d3eb3	-0.23168449
170	0xbdd83571	-0.10557068
171	0xbb3e7848	-0.0029063392
172	0xbdbd3596	-0.09238736
173	0x3ea1ab9a	0.31576234
174	0x3e1944ff	0.14967726
175	0xbe9864bd	-0.29764357
176	0xbe9d4304	-0.3071519
177	0x3ddf9bdc	0.109184
178	0x3ccf462d	0.025302017
179	0xbe48081b	-0.19534342
180	0xbe163774	-0.14669591
181	0xbc662e3e	-0.014049111
182	0x3d9ef075	0.07760707
183	0x3e23033f	0.15919207
184	0x3d1420b8	0.036164016
185	0xbe99c91b	-0.30036244
186	0x3e04ff36	0.1298798
187	0xbe2377a2	-0.15963605
188	0xbe19863e	-0.14992616
189	0xbc9f8fe8	-0.0194778
190	0x3dd189e3	0.10231378
191	0xbe0b6742	-0.13613608
192	0x3ea97477	0.33096668
193	0x3e86ea22	0.26350504
194	0x3f103888	0.5633626
195	0x3f121dd1	0.57076746
196	0x3f1060b3	0.5639755
197	0x3ee740c9	0.45166615
198	0x3ef1c5ca	0.47221214
199	0x3e801a21	0.25019935
200	0x3db0a2b7	0.086247854
201	0x3ee38b8e	0.4444241
202	0x3e30f3bd	0.17280479
203	0x3ef82dce	0.48472446
204	0x3ed00699	0.40630034
205	0xbce0e96e	-0.027455058
206	0xbe85ece4	-0.26157296
207	0x3d22561a	0.039632894
208	0x3eaa58ed	0.3327097
209	0x3ee53cd3	0.44772968
210	0x3f24809e	0.64258754
211	0x3ed334d6	0.41251248
212	0x3e919e2e	0.28440994
213	0x3ee4aabc	0.4466151
214	0x3efe1d9a	0.4963196
215	0x3e84162a	0.2579816
216	0x3e4818aa	0.19540659
217	0x3f078ae2	0.52946293
218	0x3d0a748f	0.033802565
219	0x3e8da3e5	0.27664104
220	0x3e03e766	0.1288124
221	0xbde7e29f	-0.113225214
222	0xbe8c0663	-0.27348623
223	0x3ec76296	0.38942403
224	0x3edd91e2	0.43275362
225	0x3ecb0ac4	0.3965665
226	0x3e392dbc	0.18083853
227	0x3ecafac3	0.3964444
228	0x3e866050	0.26245356
229	0x3ef7df8a	0.48412734
230	0x3ec07fe9	0.37597588
231	0x3e2ae9d5	0.16690762
232	0xbda0b25c	-0.07846519
233	0x3f250f6f	0.64476675
234	0x3e8dc465	0.276889
235	0x3eea805a	0.4580105
236	0x3eac4cf9	0.33652475
237	0xbec3326c	-0.38124406
238	0xbe632590	-0.22182298
239	0x3f0fc0f3	0.5615379
240	0x3e2e2ee3	0.17010073
241	0x3e26609e	0.16247794
242	0x3ed83731	0.42229608
243	0x3eae38c6	0.3402769
244	0x3ed49bb4	0.41525042
245	0x3f08c1d8	0.5342078
246	0x3ee03b90	0.43795443
247	0x3e04901f	0.12945603
248	0x3cfe0de2	0.03101248
249	0x3e500760	0.20315313
250	0x3eb7991b	0.35858998
251	0x3f0b90e5	0.54517967
252	0x3eb6536b	0.35610518
253	0xbdaaa51f	-0.083322756
254	0xbecdbdfb	-0.40184006
255	0x3ebe50df	0.37171075

model.2.bias f4 [32]
0	0xbe8794fc	-0.26480854
1	0xbe85d28e	-0.26137203
2	0xbe855dde	-0.26048177
3	0x3dc5b482	0.0965357
4	0xbe1cc3e7	-0.15309106
5	0xbc86845b	-0.016420534
6	0xbcdcab2f	-0.026937095
7	0x3da13df9	0.078731485
8	0x3e92508c	0.28577077
9	0xbd0db2c6	-0.03459432
10	0xbd17d309	-0.037066493
11	0xbe4f4e38	-0.20244682
12	0xbeafeb10	-0.34359026
13	0xbea3d3fa	-0.31997663
14	0xbe88d985	-0.26728454
15	0xbe80c924	-0.25153458
16	0x3ed92b3c	0.42415798
17	0xbe596dd4	-0.21233302
18	0xbe2080f4	-0.15674192
19	0xbe991caf	-0.29904696
20	0xbea01f09	-0.31273678
21	0xbe4d3572	-0.20039919
22	0xbd94cd1d	-0.07265685
23	0x3ea57f91	0.32323888
24	0x3eddfe7c	0.4335822
25	0xbe84fcaa	-0.25974017
26	0x3ef1bfcf	0.4721665
27	0xbe693429	-0.22773804
28	0x3d5c1f35	0.0537407
29	0xbe78cbe3	-0.24296527
30	0xbe1a1aba	-0.15049258
31	0x3f01ced3	0.50706214

model.4.weight f4 [2, 32]
0	0x3eedda06	0.464554
1	0x3e2c4e3c	0.16826719
2	0x3f0a5e5b	0.54050225
3	0x3cd2f31d	0.025750691
4	0x3daf373b	0.08555456
5	0x3cf3c6ed	0.029757941
6	0x3d971ee1	0.073789366
7	0x3d9aa9fa	0.07551952
8	0xbe7145a3	-0.2356172
9	0xbe486871	-0.19571091
10	0xbe97161a	-0.2950905
11	0x3df09d91	0.117488034
12	0x3ef6fbe9	0.48239067
13	0x3f0cab22	0.5494863
14	0x3f1aec8f	0.6051721
15	0x3f0be36a	0.5464388
16	0xbf15686c	-0.5836246
17	0x3f085bbd	0.5326498
18	0x3d4a06b9	0.049322817
19	0x3eb0a746	0.3450262
20	0x3ef120c9	0.47095326
21	0x3e97a4fd	0.29618064
22	0x3ed09367	0.4073746
23	0xbe072603	-0.13198094
24	0xbf02693b	-0.5094182
25	0x3ea516e0	0.32244015
26	0xbedbc508	-0.4292376
27	0xbd86137f	-0.06546687
28	0x3e8faf79	0.28063563
29	0x3e3efd45	0.18651302
30	0xbdbc0851	-0.09181274
31	0xbf0e8d7b	-0.5568463
32	0xbeec11cc	-0.46107328
33	0xbe923500	-0.2855606
34	0xbea243fb	-0.3169249
35	0x3d695c65	0.05697288
36	0x3d9fdad4	0.0780541
37	0x3d60ee39	0.054914687
38	0xbdd0cb98	-0.101950824
39	0xbd974cec	-0.073877186
40	0x3eea0776	0.45708817
41	0xbc968f2a	-0.018378813
42	0xbd2a1748	-0.04152611
43	0x3d904dc3	0.07046082
44	0xbed797fd	-0.42108145
45	0xbecb89c4	-0.39753544
46	0xbe84785b	-0.25873074
47	0xbeffc6cb	-0.49956354
48	0x3f06e56d	0.52693826
49	0xbee5261d	-0.4475564
50	0xbd2a739d	-0.041614164
51	0xbf0598ba	-0.5218617
52	0xbf1b827e	-0.6074599
53	0xbded263c	-0.11579558
54	0xbec7e9c4	-0.39045537
55	0x3e8b3521	0.27188972
56	0x3ef01830	0.46893454
57	0xbeed7dc5	-0.46385017
58	0x3ef1cbfd	0.47225943
59	0xbe3ebc08	-0.18626416
60	0xbee92183	-0.4553338
61	0x3d8f25bd	0.0698962
62	0x3dbeda9b	0.093190394
63	0x3efed18f	0.49769256

model.4.bias f4 [2]
0	0xbe306b9f	-0.17228554
1	0x3d7e0208	0.062013656

testfc.weight f4 [2, 2]
0	0x3d46e970	0.048562467
1	0xbd624370	-0.055240095
2	0x3eff40e6	0.498542
3	0x3d666790	0.05625111

testfc.bias f4 [2]
0	0xbd7471d0	-0.059678853
1	0xbf165f09	-0.5873876
